.vscode/chrome-debug/optimization_guide_model_store/20/E6DC4029A1E4B4C1/3255663A1025E207/model.tflite (tflite, 64852 bytes, 5 tensors)

arith.constant f4 [1, 64]
000000 17 10 93 3d 46 f8 81 3e 39 fa 0c 3e cc 43 50 3e
       0.07180803 0.2538473 0.13767327 0.20338362
000010 0c b6 94 3e 3d f8 cb 3d 86 47 ac 3e d3 29 6e be
       0.2904514 0.09959457 0.33648318 -0.23258142
000020 d8 43 ef bc 3a 8e 86 bd b5 1c 24 3d 06 12 9b be
       -0.029207155 -0.06570096 0.04006644 -0.30287188
000030 f7 15 b5 3e 73 05 82 3e 04 7b 24 3e af 25 a7 3e
       0.3536832 0.25394782 0.16062552 0.32645938
000040 4f b4 2b be 7e 5a 41 3e a6 07 ac be ac 57 0f 3f
       -0.16768001 0.18882176 -0.33599585 0.5599315
000050 4c ec 22 be ff 4d e6 3c 15 b9 ae be a0 65 d6 3d
       -0.15910453 0.028113363 -0.3412558 0.10468602
000060 ad 67 64 3d 46 d7 77 be 4a c2 92 3c 25 d1 a1 3e
       0.055762935 -0.24203214 0.01791491 0.31604877
000070 e4 47 12 be 5a 55 ae be 35 bc c9 3e ab ca 31 3e
       -0.14285237 -0.34049493 0.39401403 0.17362468
000080 17 97 f8 3d f1 79 57 3e 1c b6 ed bd 59 19 40 3e
       0.12138193 0.2104261 -0.11607 0.1875967
000090 ee 2f 3c 3d a1 9c 7e 3e 71 5b 26 3e 43 a6 1f be
       0.045944147 0.24864437 0.1624582 -0.15590768
0000a0 6d 96 58 be 61 42 57 3e 7d 61 90 be 67 f5 82 be
       -0.21151133 0.21021415 -0.28199378 -0.25577852
0000b0 3d 25 8d bd 7e e0 81 bd 33 07 5d be f6 dd 9d be
       -0.06891868 -0.063416466 -0.21584778 -0.30833405
0000c0 7f d5 c9 3d ff e6 0b be 82 16 a0 3e ff 9e 2a be
       0.09855174 -0.13662337 0.31267172 -0.16662215
0000d0 e8 92 05 3d 57 46 78 3d 26 23 90 3c 4c 1a 8e 3e
       0.032610804 0.060613956 0.017594885 0.27754438
0000e0 fa 41 a7 be 95 1c 43 bd 02 47 a0 3e 76 10 09 3e
       -0.32667524 -0.04763468 0.31304175 0.13385186
0000f0 ee f3 9c bc da 35 a4 bc a2 b0 3f be 87 95 33 be
       -0.019159283 -0.02004521 -0.18719724 -0.17537509

arith.constant1 f4 [64, 128]
000000 ba 0a 79 bc 07 bc c5 3d bd b9 13 3e 0a 8e 8b bd
       -0.015200311 0.09655004 0.14426322 -0.06814201
000010 6b 35 03 3e 14 90 10 3d 27 37 d0 3d aa f1 ac bd
       0.12813346 0.035293654 0.101667695 -0.08444531
000020 25 d3 17 3d 97 7c 13 3e 1f 37 fd bd 41 04 a6 3c
       0.037066597 0.14402996 -0.12364029 0.0202657
000030 60 85 91 bd 22 f9 e2 3d bc bf ca bb 8b 64 2f 3d
       -0.071055174 0.110826746 -0.0061874073 0.042820495
000040 4e fa 29 3e 19 e1 43 3e 48 bc cf bd 4f 2d ad 3d
       0.1659939 0.19128837 -0.10143334 0.084559076
000050 c3 df 46 be 38 68 8e 3c c8 d8 bb bd a6 3e 7c bd
       -0.19421296 0.01738368 -0.09172207 -0.061583184
000060 7d 83 11 be ad 6f 3d be 58 68 8a bd 90 e7 5c bd
       -0.14210315 -0.18499632 -0.06758183 -0.053931773
000070 3c c2 5e 3d b9 59 f7 bd dd a9 af 3d 3a 6a bc 3d
       0.054384455 -0.1207766 0.08577321 0.091999486
000080 58 68 bf 3c cf 61 c3 3b a1 6b 22 3e ff 56 13 3e
       0.023365185 0.0059625874 0.1586137 0.14388655
000090 60 76 3e 3d 89 2d 59 3d 11 4c 18 be 34 94 a9 3d
       0.04649961 0.05302194 -0.14872767 0.08280221
0000a0 04 d8 c1 3b 2b d8 27 3e 28 be a9 bd 39 90 ea 3b
       0.0059156436 0.16391055 -0.082882226 0.007158306
0000b0 c4 5a 1e 3e ba ca 9b bc 8e 01 cf 3c 80 cb cc 3d
       0.15464312 -0.019017566 0.025269296 0.09999752
0000c0 f5 de 54 3d df e1 a6 3d a2 b4 df 3d 7b 37 12 3e
       0.05197044 0.0814855 0.10923125 0.14278977
0000d0 f3 2d 2d 3e 93 fb 2f bd 51 f8 d8 3c d6 4d 2a 3e
       0.1691206 -0.04296453 0.026485594 0.16631255
0000e0 d0 9a f0 3d d0 d6 2f bd 80 80 26 be fa 3f 5b bd
       0.11748278 -0.04292947 -0.16259956 -0.05352781
0000f0 17 3f fe bd ba f1 1a bc 42 03 a8 3d c1 51 cf bd
       -0.12414377 -0.009457046 0.082037464 -0.10123015
000100 91 f0 10 3e 8b a3 22 bd dd 0c b0 3d 95 98 29 3e
       0.14154269 -0.039706748 0.085962035 0.16562112
000110 7f 54 c7 3d da fd a2 bd 83 56 19 3e a9 fe 96 3c
       0.09732913 -0.079585746 0.14974408 0.018431978
000120 4b da bf bd 54 fb 85 3d 2c 31 0b be 1f e3 44 be
       -0.09367808 0.06542078 -0.13592976 -0.19227265
000130 76 e2 20 be f1 18 e5 bd b4 41 1e be 0b 4d 48 be
       -0.15711388 -0.11186398 -0.15454751 -0.1956064
000140 d5 84 29 be 48 cb c5 3d b1 e8 a6 bd 05 a5 0d 3e
       -0.16554578 0.096579134 -0.08149851 0.13832481
000150 b0 9a 1a be 66 e6 05 bc b2 cb 2a be ed 5a 97 bd
       -0.15098071 -0.008172607 -0.16679266 -0.073903896
000160 96 ea eb 3d f4 b2 ef 3d ce 48 1d be f9 50 8e 3d
       0.11519353 0.117040545 -0.15359804 0.06949038
000170 34 b9 3e bd ab 82 bb 3c 6c 0b 76 3d 00 71 a2 3d
       -0.046563342 0.022889456 0.060069486 0.07931709
000180 57 ae 5f 3d fb e7 e5 bd 3d 5f 2c 3c 3b a4 23 be
       0.054609623 -0.112258874 0.010520753 -0.15980618
000190 0a e4 18 bd c7 f7 e2 bd 0c 6e 42 3e 04 98 33 3d
       -0.03732685 -0.11082416 0.18987292 0.043846145
0001a0 5c e4 44 3e fc d7 73 bd 9f b8 a2 bd cf 84 de bd
       0.19227737 -0.05953215 -0.0794537 -0.10865175
0001b0 a7 55 99 bd bd 15 77 3d 52 fa 00 be cf 91 a3 3d
       -0.0748704 0.060323466 -0.1259549 0.07986795
0001c0 e6 91 13 be 42 5f 4c 3e 47 fc 30 bd 4c 7e 36 be
       -0.14411125 0.19958213 -0.04320934 -0.17821616
0001d0 c7 e2 a7 3d 65 56 34 be ab d9 f9 bc fb 46 f7 bd
       0.08197551 -0.17611082 -0.0304993 -0.12074085
0001e0 f8 69 ca 39 82 bf 0c be 8a 09 74 3d 10 c7 fe 3d
       0.00038607395 -0.1374493 0.05957941 0.12440312
0001f0 58 35 6c bd 33 25 a3 bd c0 13 f4 bd 47 63 9f 3d
       -0.05766806 -0.079660796 -0.119178295 0.077826075
000200 eb 2c 00 be 41 fa e6 bd 5b 1f 20 3e d2 7c dc 3d
       -0.12517135 -0.11278201 0.15636961 0.10765995
000210 f1 f5 34 3d 19 f7 f1 bd 87 b6 e8 3d 0f b8 14 bd
       0.04417986 -0.11814708 0.11362939 -0.036308344
000220 14 82 3c 3e 88 f0 53 3d 23 8f 07 be 26 70 e0 3c
       0.18408996 0.05174306 -0.13238196 0.027397227
000230 21 d0 c1 3d f8 e2 1b 3e 94 b7 37 3e b0 c8 c7 3d
       0.094635256 0.152233 0.17941123 0.09755075
000240 a4 d5 27 3e 50 e2 e4 3d 3d df 21 3e f3 73 3c bd
       0.16390091 0.11175978 0.15807815 -0.046009015
000250 b1 4f 44 3d cb 90 a1 bd a5 93 b8 bd 04 d9 f9 bb
       0.047927562 -0.07888945 -0.09012536 -0.007624747
000260 da 3b f8 bd d9 d5 3f 3d 16 c5 f3 bd 5a 44 d7 3d
       -0.12120791 0.0468348 -0.119028255 0.10511084
000270 ce 07 3a be 8b 08 29 3d 69 eb 24 3e 47 62 03 3e
       -0.1816704 0.041267913 0.16105427 0.12830459
000280 96 c9 f9 3c c5 58 68 3d e7 e9 95 bc 3f ac 22 be
       0.030491631 0.056725282 -0.01830001 -0.15886019
000290 c2 4a 19 3e 0c 3c a6 3c 3f de 28 3d c9 c6 31 3d
       0.14969924 0.020292304 0.041227575 0.043402467
0002a0 b9 fa 27 3e e1 91 ee 3d 9f 09 18 bd c7 64 15 be
       0.16404237 0.11648918 -0.03711855 -0.14589225
0002b0 c8 b1 80 bd c3 c6 b8 bd 6f f5 9a 3d 68 03 09 3e
       -0.06283909 -0.09022286 0.07566344 0.13380206
0002c0 3f 48 91 3d 4e 86 7f 3d 07 54 e5 bc d3 ff ce 3d
       0.07093858 0.062383942 -0.027994169 0.10107388
0002d0 3b 6a 21 3e a4 b9 2c 3e 8e e7 00 be 81 e7 f0 bd
       0.1576318 0.16867691 -0.12588331 -0.11762906
0002e0 87 ae e8 3d 2b 76 ee bb ae 57 ef 3d 4c dc 4f bc
       0.113614134 -0.0072772703 0.116866454 -0.0126868
0002f0 31 f1 03 3e c8 1e 99 3d 0d 52 4b bc f9 f3 05 3e
       0.12884976 0.07476574 -0.012409699 0.1308135
000300 f4 c1 42 bc 52 a3 06 ba e8 d6 00 be d9 04 21 3c
       -0.011887062 -0.0005136031 -0.1258198 0.009827816
000310 74 19 22 be cb 49 d0 3c 03 0b 2c be bb da 3e 3e
       -0.15830022 0.025425812 -0.16801076 0.18638127
000320 ba 01 a6 3d f3 1a 02 3d 4b a1 e6 3a e4 8e 91 3d
       0.08105798 0.031763982 0.0017595676 0.07107332
000330 99 49 2d 3d 9e 6e f2 3c ba 0e 5b 3d 98 af ca bd
       0.042306516 0.029593762 0.05348084 -0.09896773
000340 37 3e 92 3d d9 23 ba bc 62 0e 80 bd f3 4e 62 3d
       0.07140773 -0.022722172 -0.06252743 0.055251073
000350 25 a5 cc bc ba 70 d2 bd 50 fb 54 bd 8c c2 35 bd
       -0.02498109 -0.10275407 -0.051997483 -0.044374987
000360 9a e8 02 3d 22 56 cf 3c c5 de 5a bd 10 ec 24 be
       0.031960107 0.025309626 -0.053435106 -0.16105676
000370 0f 0b 37 3e c4 9b cc 3d c8 38 aa 3d 56 67 2a be
       0.17875312 0.099906474 0.083116114 -0.16640982
000380 d9 03 30 bd 74 23 00 be a2 58 91 bd 58 ad c6 bd
       -0.04297242 -0.12513524 -0.070969835 -0.097010314
000390 a1 5d 8b 3d e9 ae 27 be ab 37 ec 3d ae 93 a1 bd
       0.06804968 -0.16375317 0.11534055 -0.07889496
0003a0 9e d9 68 bd 05 0a 31 be 95 3e 90 3d ce 90 33 be
       -0.05684816 -0.17288978 0.070431866 -0.17535707
0003b0 43 e6 ef bd 53 63 21 ba 2d 53 06 3e db ee c8 bd
       -0.11713841 -0.0006156463 0.13117667 -0.09811183
0003c0 fc ed 86 3d 60 df 0a be ff ae 06 3e 75 29 c9 bd
       0.06588361 -0.13561773 0.13152693 -0.098223604
0003d0 3d 09 44 be a9 08 ce 3d 40 4b 07 3e 94 34 b5 bd
       -0.19144149 0.100602455 0.132123 -0.08847919
0003e0 92 92 b7 bd 3d 22 a9 bb 08 e4 71 bc 9a 4c 28 3c
       -0.08963503 -0.005161552 -0.01476384 0.0102721695
0003f0 44 2a 2c bd 45 80 3c be 0b 01 e2 bd 1d bc 1b 3e
       -0.042032495 -0.18408306 -0.11035355 0.15208478

arith.constant2 f4 [128, 12]
000000 dc be 60 3d e9 85 7d 3d a4 d7 fc 3c 70 c1 c4 3d
       0.054869518 0.061895285 0.030864544 0.09607208
000010 63 53 a6 bb d2 ef dc ba 17 3a 5b be 1b 8c 0d 3e
       -0.0050758584 -0.001685614 -0.21408878 0.13822977
000020 bb 1b 27 3e 54 b1 50 3c e3 d1 32 bd 2b c8 71 bd
       0.16319172 0.012737591 -0.043657195 -0.059028786
000030 3b a3 26 be 89 01 0c be 41 eb a9 bc 16 2e 55 3d
       -0.16273205 -0.1367246 -0.02074206 0.052045904
000040 9d b0 26 be bc 48 34 3d bf 72 21 3e f3 3a 40 3d
       -0.1627831 0.044014677 0.15766428 0.04693122
000050 b2 01 04 be 88 39 3a be d6 94 db 3d 63 06 75 bc
       -0.12891272 -0.18186009 0.107217476 -0.014955136
000060 48 ca e7 bd 88 db 3b 3d 19 e6 b9 bd 83 ec 99 3d
       -0.11317879 0.04586366 -0.09077091 0.07515814
000070 cf af 3c 3e b1 b0 49 3e 78 16 fa 3d 24 ec bb bd
       0.1842644 0.19696309 0.12211317 -0.091758996
000080 f6 87 8f bd a7 51 7f 3e b2 45 5c 3d 01 89 1f bd
       -0.07008354 0.24933492 0.053777404 -0.038949016
000090 12 a1 b6 bd 78 ec ac bb 36 ab dc 3d d2 fe 32 3d
       -0.089174405 -0.0052772127 0.107748434 0.043700047
0000a0 df 49 69 bd e3 c2 48 bd 25 17 79 3d ee 43 49 3e
       -0.056955215 -0.049013983 0.060813088 0.1965482
0000b0 c8 19 2f 3e 92 da 81 bd 87 fb 34 3e 78 9c f7 bd
       0.17099679 -0.06340517 0.17674075 -0.12090391
0000c0 af fc f0 bd 63 03 28 be 10 49 24 be a2 13 e7 bc
       -0.117669456 -0.16407542 -0.16043496 -0.028207604
0000d0 25 92 03 3e db 58 f2 bc 6e e6 1e be 26 43 50 bd
       0.12848718 -0.029583385 -0.1551759 -0.050845288
0000e0 bb 09 01 3e c3 fe 1d bc b0 5b 1d 3e dc 2e 1b be
       0.12601368 -0.009643259 0.15367007 -0.15154594
0000f0 00 04 87 bc 3d 8c 1a 3e 82 f0 e4 bd 3e 5a f0 bc
       -0.0164814 0.15092559 -0.11178686 -0.029339906
000100 5d f7 92 bd ce fa 9b bd 2e 12 8d 3d 85 4c d8 3d
       -0.07176087 -0.076161966 0.06888233 0.1056147
000110 f8 cf ed bd f8 0c 35 3e 93 82 d1 3d 65 44 ac 3c
       -0.116119325 0.17680728 0.10229983 0.021028707
000120 76 a6 14 3d ad f5 fe bd ce 22 f3 3d f1 87 13 bb
       0.036291562 -0.12449203 0.11871873 -0.0022511447
000130 59 a7 fc bd 37 4e fe 3d fe 6d 84 3d f6 a8 1d be
       -0.123366065 0.12417262 0.06466292 -0.15396485
000140 06 c6 58 3e fc 47 51 3d 86 29 ed bd cb aa 4c 3e
       0.2116929 0.05109404 -0.115801856 0.19987027
000150 ba 4f 25 3e 13 24 1c be 86 dd 13 3e 79 f7 c6 bc
       0.16143695 -0.15248136 0.14439973 -0.024287926
000160 5d 09 2e 3e a9 f5 c3 bd 53 e3 9f 3d f4 aa 3e be
       0.1699576 -0.0956834 0.078070305 -0.18619901
000170 03 7b 08 be fa 0a 33 be f2 6c e3 3d 08 cc f0 bd
       -0.13328175 -0.17484656 0.11104764 -0.11757666
000180 9d 0a 01 3e 7d 66 2b 3b 80 6b 3a be 3e aa 8e bd
       0.12601705 0.0026153617 -0.1820507 -0.06966065
000190 58 06 a6 bd ea d4 4e 3e aa e5 ff bd 1c ef e5 bd
       -0.08106679 0.20198408 -0.12494977 -0.11227247
0001a0 cf 84 56 bd e1 8b 14 3d e7 1b 7e 3d ca f0 6f 3e
       -0.05237275 0.03626621 0.06203833 0.23431697
0001b0 d6 de e6 3d 3c 7d 0d 3b b8 f1 f2 bb 44 5a fa 3d
       0.11272971 0.0021589538 -0.007414069 0.12224248
0001c0 f0 fd c2 bd e7 d3 0a be 48 95 61 be f1 31 21 be
       -0.09521091 -0.13557397 -0.22029603 -0.15741707
0001d0 dc b9 bf 3c aa 33 c5 3b e1 68 51 3e eb 08 19 be
       0.023404054 0.0060181217 0.20450164 -0.14944808
0001e0 0d e5 b5 bd 91 c1 c1 bd 9b 76 5d 3e 63 88 df bd
       -0.088815786 -0.09460748 0.21627276 -0.109146856
0001f0 bc 86 34 3e d6 01 2c 3e 15 af 45 bd 93 82 0c 3d
       0.17629522 0.16797575 -0.048262674 0.034304213
000200 ab 9f 3d 3e 3f e9 93 bc 19 8a 25 3d 55 48 49 3e
       0.1851794 -0.018055556 0.040414903 0.19656499
000210 03 45 b2 bd 59 65 d3 bd 58 9a 4c be 07 96 e1 bb
       -0.08704569 -0.10322065 -0.19980752 -0.0068843397
000220 d1 94 49 3c 48 f6 c9 3c a8 0f 5a be e5 3e cf bc
       0.012303547 0.024653569 -0.21295035 -0.025298545
000230 a2 d2 49 3e 82 47 77 3d 89 ba 02 bd d7 2f f4 bd
       0.19709256 0.06037093 -0.031916175 -0.11923187
000240 4d 16 bb 3d c5 b7 2b be 05 8d 3f 3e f4 47 29 be
       0.09135113 -0.16769321 0.18706138 -0.16531354
000250 51 e6 d9 3d f7 95 c9 bd 25 6c 08 3e 4d 06 59 3e
       0.106396325 -0.09843057 0.13322504 0.2119381
000260 05 d3 eb 3d a9 07 1d be 90 4e 04 3d f9 88 8c 3d
       0.11514858 -0.15334953 0.032301486 0.06862063
000270 d0 9f de 3d d6 9b 27 bd d2 e1 53 3d 2d 5c 4f 3d
       0.108703256 -0.0409201 0.05172903 0.050625015
000280 2a cd 49 3e b8 f9 d4 3c 8b fe 90 be 00 98 93 bc
       0.1970717 0.025997981 -0.283192 -0.018016815
000290 7e b7 a8 3d 11 dd da 3d 0b cb 43 3c 3b 33 d2 3d
       0.08238123 0.10686696 0.011950265 0.10263678
0002a0 d4 f3 c4 bc 52 64 b1 bd aa 3a 9d 3c 68 28 c8 bd
       -0.024042048 -0.08661713 0.019193012 -0.09773332
0002b0 f7 19 15 3e 58 dd 16 3d 6e af dd 3d 34 94 e0 bd
       0.14560686 0.036832184 0.10824476 -0.109657675
0002c0 26 93 45 be 7e bd 0b 3e cb f5 ee 3d c1 62 97 bd
       -0.19294414 0.13646504 0.11667975 -0.07391883
0002d0 5a ef df bd b3 a9 05 3e 2c c3 47 bd ba aa 0a 3e
       -0.109343246 0.13053016 -0.048770115 0.1354169
0002e0 3e a7 da bd 2a 95 88 3b eb 5e 09 3d de 50 ba 3c
       -0.1067643 0.0041681724 0.033537786 0.022743639
0002f0 b7 35 77 be de 89 f0 bd f4 c1 7c 3e 6d a4 ee 3c
       -0.24141584 -0.11745046 0.24683362 0.029131139
000300 46 8e ea 3d e4 ba 67 bd 64 06 52 be 8c 12 10 3e
       0.11452918 -0.056574717 -0.2051025 0.14069575
000310 1f ed a0 bd c7 94 a1 bd 4f f3 2e be 5b 38 d4 bd
       -0.07857727 -0.07889705 -0.17085002 -0.103623115
000320 07 23 a4 bd a3 39 60 bd bb f8 19 3e 9b 54 13 3e
       -0.080144934 -0.054742467 0.1503629 0.14387743
000330 c4 54 bd 3c 61 c9 45 be 1a 91 9e 3d fb 31 83 bc
       0.023111708 -0.19315101 0.0774252 -0.016015043
000340 19 53 20 3e 38 e4 1b be f6 cf 9a bd 83 6c 04 bb
       0.15656699 -0.15223777 -0.07559197 -0.002020628
000350 53 63 4f 3e d2 06 d4 bd c9 90 2e 3e b5 07 e6 bc
       0.20252733 -0.10352863 0.17047419 -0.028079847
000360 ea a1 0b 3e 69 86 4b 3d 79 07 4f 3d 4d a6 1b bd
       0.13635984 0.04968873 0.050544236 -0.038000394
000370 e5 cb c9 bd ce 63 c3 3d 52 47 be 3d ae 55 33 be
       -0.09853343 0.095405206 0.09290947 -0.17513153
000380 0b 19 85 be 2c d7 94 bb 2d dc 26 3e 74 9d 90 3d
       -0.2599567 -0.004542252 0.16294928 0.07061282
000390 4a 62 f6 bd fb f2 39 3e 91 eb 89 3d c5 0e 9c 3c
       -0.12030466 0.18159096 0.06734384 0.019050011
0003a0 7d 73 3f 3d bf 71 54 be 21 28 ca 3d d5 72 97 3d
       0.046740998 -0.20746516 0.09870935 0.07394949
0003b0 bd a6 4a 3c c5 fb 30 3e 1b ff 39 be b2 ee 8f 3d
       0.012368855 0.17283542 -0.18163721 0.070279494
0003c0 fc 98 09 be 3f 12 ff bd 87 d6 5d 3d 4b 64 01 3e
       -0.13437265 -0.12454652 0.054159667 0.12635915
0003d0 d6 4e e8 bd f9 ec 01 3e d3 4a 59 be c0 ff 3d be
       -0.11343162 0.12688054 -0.2121995 -0.18554592
0003e0 42 1d 73 3d b1 a6 02 be 13 af b0 bb dd da 3d 3e
       0.059354074 -0.127589 -0.005391964 0.18540521
0003f0 49 a4 ab 3d 1d 6f ef 3d ac b1 26 3d 5b 8a 12 3e
       0.08380944 0.11691115 0.040696785 0.14310591

arith.constant29 f4 [64]
000000 07 ea dd bc 3f d3 17 3d d9 17 4f 3c 3d dc 95 3c
       -0.027089132 0.037066694 0.012639963 0.018293494
000010 a0 d4 7d 3d 29 b9 2f 3c bd 05 89 3d be dd 33 bc
       0.061970353 0.010725298 0.066905476 -0.01097816
000020 ff 87 73 3c 57 71 8d bc 2d b1 2e bc 46 bb 98 bb
       0.014863967 -0.017265959 -0.010662359 -0.0046609966
000030 76 6b 33 3d 13 80 0e 3d 4b 5f a0 3c f8 b2 43 3d
       0.043803655 0.03479011 0.01957669 0.0477781
000040 01 80 03 bd f1 9a 1d 3c 07 8a 04 3b fa 79 f9 bd
       -0.032104496 0.00961946 0.0020223872 -0.12181468
000050 b1 c0 9b bb 64 3e 06 bc 8d 12 24 bd 7a 1b 8d bc
       -0.004753195 -0.008193586 -0.040056754 -0.017225016
000060 2a 48 9d 3c 25 fe af ba 83 5a 87 bc b9 d9 b1 bd
       0.01919945 -0.0013427181 -0.016522652 -0.086841054
000070 b6 48 6e 3c 64 e4 fb 3c 29 07 c1 bc 41 14 c0 3c
       0.014543703 0.030748554 -0.023562985 0.023447158
000080 84 f9 2e bd d6 08 8e 3c b8 6b b6 bc 17 04 71 3c
       -0.042718425 0.017338198 -0.022268161 0.014710448
000090 b6 ed 9b bc 84 70 40 3c 9b 01 39 bd 7f ab 62 bd
       -0.019034248 0.011745576 -0.045167547 -0.055339333
0000a0 39 be 37 bd 88 09 06 3d 49 89 57 bd d2 c4 ae bc
       -0.044859145 0.032723933 -0.05262116 -0.021334086
0000b0 e8 7d e0 3b 15 16 4e 3a d9 95 95 bd 94 50 9b bc
       0.0068509467 0.0007861567 -0.07303972 -0.018959321
0000c0 f3 d1 19 bc 87 73 02 3d 65 79 cf 3c 70 46 8d bb
       -0.009388435 0.031848457 0.02532644 -0.0043113753
0000d0 29 ef 79 bc a1 1f d4 bc f3 f0 e4 3a 85 c9 a6 bd
       -0.015254774 -0.025893988 0.0017466828 -0.081439056
0000e0 75 e9 33 bd 70 cb 11 3c a8 85 1f bd 7c a1 46 bd
       -0.043923814 0.008898601 -0.038945824 -0.048493847
0000f0 57 a9 ac 3a 3c 05 90 3b c5 54 a3 bc f9 e1 72 bc
       0.0013173026 0.0043951552 -0.019937882 -0.014824384

arith.constant30 f4 [128]
000000 a9 ca d0 bd fe 37 62 bc 5e e2 c1 bc 9f c5 59 3d
       -0.10194904 -0.013807295 -0.02366751 0.05316698
000010 98 f7 0e 3c a8 de ab bc 52 1d 2c 3d a1 1b 3b 3c
       0.008726023 -0.020980194 0.04202015 0.011420161
000020 df ec 14 bb 2d ca 4d 3d cc b4 cb bc ba 1d 8a bd
       -0.0022724194 0.050241638 -0.024866484 -0.06743951
000030 e1 f8 9b bd 2e 09 37 bd 8e 1a f8 bc af 79 ed 3b
       -0.07615829 -0.04468649 -0.0302861 0.007247172
000040 95 8b 47 3d 69 e2 96 bc dd 4e 12 bc fd be 7a bd
       0.0487171 -0.018418508 -0.008929935 -0.061217297
000050 8e e3 08 bd d0 fa a3 bc 5b ee 59 bd fe 8c b0 bc
       -0.033420138 -0.020017058 -0.05320583 -0.021551605
000060 96 07 e2 bc a8 6a 2f bd a3 b8 0c bd 2d af 35 bd
       -0.027591508 -0.042826325 -0.03435577 -0.044356514
000070 3d 1a 38 3b a7 5c fd bd 19 5c 1f 3c 9e db 9c 3d
       0.002809181 -0.12371188 0.009726548 0.07659076
000080 6b 5f 7e 3a 63 fe 22 bd 6b 8e 5e bd 4b 5f bf 3d
       0.00097035494 -0.039793383 -0.05433504 0.093443476
000090 99 0d 34 bd 1f 0d 0c 3c 06 a6 b5 bb 67 d9 fa bd
       -0.04395828 0.00854805 -0.005543473 -0.122484975
0000a0 f6 86 bc 3c 14 c6 13 3d a0 88 2c bd 5c 9d 40 3d
       0.023013573 0.036077574 -0.042122483 0.04702507
0000b0 35 8c 8b bb 99 28 e3 bc 96 0a 25 bd 21 39 b1 bd
       -0.0042586573 -0.02772932 -0.0402933 -0.086534746
0000c0 ef 8e 5a bd f3 af 61 3c 03 f4 ae bb 36 d6 84 bd
       -0.05335897 0.01377486 -0.005339147 -0.0648617
0000d0 53 0e 92 bb 2d ea a9 bc 74 28 92 bd 74 90 02 3c
       -0.004457274 -0.020741547 -0.07136622 0.007969011
0000e0 95 34 12 3c 27 14 9f 3c c2 a9 11 bc cf 83 87 3d
       0.008923669 0.01941879 -0.008890571 0.06616937
0000f0 65 48 01 3e aa 1f 91 39 b5 a6 de 3c 78 a5 09 bd
       0.12625273 0.00027680147 0.027179101 -0.03360507
000100 ad 0b b1 3d 5e 8a 02 3d 2b 4d aa 3a 89 25 c9 3c
       0.08644805 0.03187024 0.0012992969 0.024554031
000110 b1 48 82 3d 71 dc 07 3d d1 49 2f 3d dd ea bf bd
       0.06361521 0.033169214 0.042795006 -0.093709685
000120 4e b8 f9 bd 5c dd ab bc 09 1e fc ba c4 0a 48 bd
       -0.121933565 -0.020979576 -0.0019235025 -0.048838392
000130 9a 4f 8d 3b 93 c6 13 3d c2 72 bc bc 7a 59 9c 3d
       0.0043124678 0.036078047 -0.02300394 0.07634254
000140 ea 7e 27 bd 17 e0 62 3c 7a ec 6a bd 95 2a 50 bd
       -0.04089252 0.0138473725 -0.057354428 -0.05082186
000150 41 ff fa 3c 12 a4 e4 3c 94 e7 9b 3c 5b 0e e3 ba
       0.030639293 0.027910266 0.019031323 -0.0017323004
000160 59 a7 45 3d 39 7d 32 3d 8e e0 61 bd 2e 50 8f bc
       0.0482553 0.043576453 -0.055145793 -0.017494287
000170 54 32 95 bc fe ae 09 ba 8f e6 e9 bc 31 e0 e7 3c
       -0.018212475 -0.0005252211 -0.028552322 0.028305145
000180 50 a3 6f 3d 94 2b 64 bd d6 ca 81 bd bd 60 f1 bc
       0.058505356 -0.05570562 -0.06337516 -0.029465074
000190 cb 46 1d bd e2 75 33 bc a8 e8 fc bc e2 92 0d bd
       -0.03839759 -0.010953398 -0.030872658 -0.034563906
0001a0 de 75 99 bd b2 70 21 bc dd bd c5 3c 95 b7 2f 3d
       -0.074931845 -0.009853529 0.024138385 0.042899687
0001b0 2d e2 cb bd 78 51 ce 3c d3 7a 37 bd d0 50 19 3a
       -0.09955249 0.025185332 -0.04479487 0.0005848529
0001c0 b5 24 1b bc ea 53 86 bc d8 b8 83 bc dc 2b 55 bd
       -0.009469201 -0.016397435 -0.016079351 -0.05204378
0001d0 aa 52 6e bd fc 76 88 3d 4c 35 9b bc d5 05 0a bc
       -0.058184303 0.066633195 -0.018946312 -0.008424242
0001e0 91 6e 1f 3c cf 01 14 3e a3 6c fe 3c e0 8f 66 bc
       0.009730951 0.14453815 0.031057661 -0.014072388
0001f0 a2 9c 8b 3d ab cd 9d bd fe aa 98 bc 81 e5 88 bd
       0.06816985 -0.07705244 -0.018636223 -0.066843994
